gl2facemesh/facemesh_model/face_detection_front_128_full_integer_quant.tflite (tflite, 201648 bytes, 37 tensors)

conv2d/conv2d i1 [24, 5, 5, 3]
0	0x17	23
1	0xdc	-36
2	0xd6	-42
3	0xe1	-31
4	0xf3	-13
5	0xfc	-4
6	0xcd	-51
7	0x0b	11
8	0x14	20
9	0xc1	-63
10	0x07	7
11	0xef	-17
12	0xe7	-25
13	0x1b	27
14	0x07	7
15	0xe8	-24
16	0xca	-54
17	0xe8	-24
18	0x17	23
19	0x4a	74
20	0x54	84
21	0x33	51
22	0x7f	127
23	0x71	113
24	0xfc	-4
25	0x4a	74
26	0x2d	45
27	0x03	3
28	0x38	56
29	0x28	40
30	0x12	18
31	0xf9	-7
32	0x0c	12
33	0x39	57
34	0x4f	79
35	0x51	81
36	0x3b	59
37	0x52	82
38	0x42	66
39	0xf0	-16
40	0x10	16
41	0x04	4
42	0x02	2
43	0x1b	27
44	0x0a	10
45	0x16	22
46	0xdc	-36
47	0xe7	-25
48	0xf2	-14
49	0xd8	-40
50	0xe0	-32
51	0xdc	-36
52	0xbc	-68
53	0xd7	-41
54	0xdc	-36
55	0xbf	-65
56	0xd9	-39
57	0x09	9
58	0xf6	-10
59	0x03	3
60	0x1c	28
61	0xdd	-35
62	0xe8	-24
63	0x0d	13
64	0xc3	-61
65	0xd6	-42
66	0xfe	-2
67	0xb5	-75
68	0xca	-54
69	0x0b	11
70	0xcc	-52
71	0xdc	-36
72	0x1c	28
73	0xeb	-21
74	0xeb	-21
75	0x0c	12
76	0x12	18
77	0xed	-19
78	0xf0	-16
79	0x31	49
80	0xd8	-40
81	0xf4	-12
82	0x2e	46
83	0xdd	-35
84	0x05	5
85	0x11	17
86	0xd6	-42
87	0x29	41
88	0xf1	-15
89	0xf2	-14
90	0xf4	-12
91	0x30	48
92	0xd8	-40
93	0xd0	-48
94	0x6c	108
95	0xbc	-68
96	0xcf	-49
97	0x7f	127
98	0xc1	-63
99	0xdf	-33
100	0x3d	61
101	0xd0	-48
102	0x11	17
103	0xed	-19
104	0xfe	-2
105	0x03	3
106	0x0e	14
107	0xef	-17
108	0xf6	-10
109	0x59	89
110	0xd0	-48
111	0xf5	-11
112	0x5f	95
113	0xc3	-61
114	0xfb	-5
115	0x23	35
116	0xe1	-31
117	0x0e	14
118	0xf1	-15
119	0x06	6
120	0xfd	-3
121	0xf5	-11
122	0x05	5
123	0x09	9
124	0x01	1
125	0xee	-18
126	0x06	6
127	0x0a	10
128	0xea	-22
129	0x05	5
130	0xfa	-6
131	0xfb	-5
132	0x02	2
133	0xea	-22
134	0x11	17
135	0xf1	-15
136	0xf0	-16
137	0x22	34
138	0x01	1
139	0xe7	-25
140	0x19	25
141	0xff	-1
142	0xef	-17
143	0x1f	31
144	0x00	0
145	0xe8	-24
146	0x19	25
147	0xfe	-2
148	0xeb	-21
149	0x19	25
150	0xe3	-29
151	0xee	-18
152	0x35	53
153	0x13	19
154	0xff	-1
155	0x21	33
156	0x0c	12
157	0xfc	-4
158	0x0c	12
159	0x13	19
160	0x1b	27
161	0x1b	27
162	0xbd	-67
163	0xd6	-42
164	0xc3	-61
165	0x4f	79
166	0xf5	-11
167	0x3e	62
168	0x65	101
169	0xb7	-73
170	0xfc	-4
171	0x37	55
172	0x91	-111
173	0xec	-20
174	0x7f	127
175	0x0d	13
176	0x37	55
177	0x21	33
178	0x06	6
179	0x12	18
180	0x12	18
181	0xde	-34
182	0x12	18
183	0x4a	74
184	0xa9	-87
185	0xdf	-33
186	0x4e	78
187	0x82	-126
188	0xbf	-65
189	0x49	73
190	0xcc	-52
191	0xfc	-4
192	0xfe	-2
193	0xbd	-67
194	0xed	-19
195	0xef	-17
196	0x0e	14
197	0x1a	26
198	0x69	105
199	0x17	23
200	0x07	7
201	0x67	103
202	0xdc	-36
203	0xca	-54
204	0x66	102
205	0xd5	-43
206	0xdd	-35
207	0x14	20
208	0xc5	-59
209	0xeb	-21
210	0x86	-122
211	0xf3	-13
212	0x1a	26
213	0xe6	-26
214	0x06	6
215	0x12	18
216	0xf4	-12
217	0x04	4
218	0xf7	-9
219	0x31	49
220	0xff	-1
221	0x1c	28
222	0x07	7
223	0x07	7
224	0x29	41
225	0xe3	-29
226	0xfa	-6
227	0x51	81
228	0xdd	-35
229	0xd3	-45
230	0x17	23
231	0x14	20
232	0xda	-38
233	0x01	1
234	0x14	20
235	0xe3	-29
236	0xff	-1
237	0xe6	-26
238	0xfb	-5
239	0x0c	12
240	0x13	19
241	0xf7	-9
242	0x2c	44
243	0x25	37
244	0xcf	-49
245	0x0c	12
246	0x6d	109
247	0x1e	30
248	0xf4	-12
249	0x7f	127
250	0x69	105
251	0x0d	13
252	0x18	24
253	0x22	34
254	0xe5	-27
255	0x0c	12

depthwise_conv2d/depthwise_conv2d i1 [1, 3, 3, 24]
0	0x0e	14
1	0x0c	12
2	0x1d	29
3	0x09	9
4	0xf9	-7
5	0xee	-18
6	0xc2	-62
7	0xfb	-5
8	0x05	5
9	0xf8	-8
10	0xf0	-16
11	0xfd	-3
12	0x0b	11
13	0x09	9
14	0xfe	-2
15	0xfa	-6
16	0x05	5
17	0x42	66
18	0xfd	-3
19	0x37	55
20	0xb0	-80
21	0x06	6
22	0xb3	-77
23	0x39	57
24	0xef	-17
25	0x00	0
26	0xf8	-8
27	0x28	40
28	0x16	22
29	0x1a	26
30	0xd4	-44
31	0xdd	-35
32	0x81	-127
33	0x22	34
34	0xad	-83
35	0x55	85
36	0x35	53
37	0x81	-127
38	0x04	4
39	0xdf	-33
40	0x09	9
41	0x73	115
42	0xf5	-11
43	0xec	-20
44	0xc9	-55
45	0x04	4
46	0xc6	-58
47	0x7f	127
48	0x12	18
49	0x01	1
50	0x11	17
51	0xfb	-5
52	0x05	5
53	0xdb	-37
54	0xdb	-37
55	0xfa	-6
56	0x1b	27
57	0x41	65
58	0xd5	-43
59	0xeb	-21
60	0xf7	-9
61	0x29	41
62	0x00	0
63	0xfe	-2
64	0x01	1
65	0x41	65
66	0x04	4
67	0x10	16
68	0x2f	47
69	0x04	4
70	0xed	-19
71	0x34	52
72	0xd9	-39
73	0x0a	10
74	0xfa	-6
75	0x23	35
76	0x11	17
77	0x7f	127
78	0x8b	-117
79	0xfc	-4
80	0x10	16
81	0x3b	59
82	0xec	-20
83	0xf0	-16
84	0x0d	13
85	0x13	19
86	0x0b	11
87	0x05	5
88	0x0a	10
89	0x04	4
90	0xed	-19
91	0x42	66
92	0xf8	-8
93	0xf2	-14
94	0xbf	-65
95	0xe2	-30
96	0x81	-127
97	0x1a	26
98	0x81	-127
99	0x81	-127
100	0x81	-127
101	0x2f	47
102	0x81	-127
103	0x81	-127
104	0xb7	-73
105	0x7f	127
106	0x27	39
107	0x7f	127
108	0x7f	127
109	0xcb	-53
110	0x0a	10
111	0x81	-127
112	0x9c	-100
113	0x7f	127
114	0x81	-127
115	0x81	-127
116	0x81	-127
117	0xef	-17
118	0xd8	-40
119	0x61	97
120	0x3f	63
121	0x07	7
122	0xdb	-37
123	0xff	-1
124	0xf1	-15
125	0xe7	-25
126	0xe6	-26
127	0x2f	47
128	0x19	25
129	0x1c	28
130	0xc2	-62
131	0x36	54
132	0xbb	-69
133	0x5e	94
134	0x00	0
135	0x14	20
136	0xff	-1
137	0x6f	111
138	0x15	21
139	0xb4	-76
140	0x65	101
141	0x0b	11
142	0x36	54
143	0x7d	125
144	0xf7	-9
145	0xf9	-7
146	0x0d	13
147	0xe9	-23
148	0x03	3
149	0x17	23
150	0x11	17
151	0x0b	11
152	0x03	3
153	0x04	4
154	0x2f	47
155	0xe2	-30
156	0xb2	-78
157	0xff	-1
158	0x31	49
159	0xff	-1
160	0xec	-20
161	0x14	20
162	0x08	8
163	0x0e	14
164	0x36	54
165	0x01	1
166	0x19	25
167	0xac	-84
168	0xeb	-21
169	0x81	-127
170	0x08	8
171	0x3b	59
172	0xfc	-4
173	0x21	33
174	0xfe	-2
175	0x18	24
176	0x20	32
177	0xc8	-56
178	0x7f	127
179	0xdc	-36
180	0xba	-70
181	0x28	40
182	0x81	-127
183	0x04	4
184	0x7f	127
185	0x18	24
186	0x47	71
187	0x24	36
188	0x60	96
189	0x81	-127
190	0x7f	127
191	0xbc	-68
192	0xe8	-24
193	0x29	41
194	0xfd	-3
195	0xe0	-32
196	0xfb	-5
197	0x1c	28
198	0x0d	13
199	0x00	0
200	0x08	8
201	0xd6	-42
202	0xf7	-9
203	0xdd	-35
204	0xf5	-11
205	0xe8	-24
206	0x14	20
207	0xfd	-3
208	0xf0	-16
209	0x17	23
210	0x38	56
211	0xd4	-44
212	0x03	3
213	0xdd	-35
214	0x40	64
215	0xf4	-12

conv2d_1/conv2d i1 [24, 1, 1, 24]
0	0x23	35
1	0x07	7
2	0x2d	45
3	0x3a	58
4	0x02	2
5	0x48	72
6	0xc8	-56
7	0xcd	-51
8	0x7f	127
9	0xa4	-92
10	0x00	0
11	0x49	73
12	0xe5	-27
13	0x4f	79
14	0x10	16
15	0xff	-1
16	0x2c	44
17	0xcb	-53
18	0xdc	-36
19	0x5a	90
20	0x2f	47
21	0xf5	-11
22	0x15	21
23	0x2f	47
24	0xff	-1
25	0x37	55
26	0x06	6
27	0x01	1
28	0xfa	-6
29	0xbb	-69
30	0x0a	10
31	0x13	19
32	0x15	21
33	0x1d	29
34	0x01	1
35	0xd2	-46
36	0x2c	44
37	0x0a	10
38	0xfd	-3
39	0xf4	-12
40	0x81	-127
41	0x23	35
42	0x33	51
43	0xcf	-49
44	0x09	9
45	0xef	-17
46	0x09	9
47	0xcb	-53
48	0x5f	95
49	0x11	17
50	0x39	57
51	0x01	1
52	0x29	41
53	0x27	39
54	0x3d	61
55	0x1f	31
56	0xec	-20
57	0xc5	-59
58	0x0f	15
59	0xf0	-16
60	0xbd	-67
61	0xea	-22
62	0xc0	-64
63	0xf2	-14
64	0xf1	-15
65	0xee	-18
66	0xb8	-72
67	0xb0	-80
68	0xb0	-80
69	0x7f	127
70	0x08	8
71	0x3d	61
72	0x46	70
73	0x33	51
74	0xf5	-11
75	0x3a	58
76	0x33	51
77	0x4e	78
78	0x18	24
79	0xd0	-48
80	0x4b	75
81	0x43	67
82	0x41	65
83	0xbe	-66
84	0xe9	-23
85	0xc3	-61
86	0x07	7
87	0x0e	14
88	0x13	19
89	0x06	6
90	0xf8	-8
91	0xb6	-74
92	0x81	-127
93	0xf5	-11
94	0x6f	111
95	0x57	87
96	0x07	7
97	0xfe	-2
98	0x0b	11
99	0xf3	-13
100	0x2c	44
101	0x08	8
102	0x13	19
103	0xed	-19
104	0xd8	-40
105	0x0c	12
106	0xed	-19
107	0x13	19
108	0x18	24
109	0x81	-127
110	0x0c	12
111	0x11	17
112	0x03	3
113	0x01	1
114	0x2f	47
115	0x0b	11
116	0xc9	-55
117	0xff	-1
118	0xfb	-5
119	0x14	20
120	0x1c	28
121	0xf6	-10
122	0xeb	-21
123	0x56	86
124	0x7f	127
125	0x00	0
126	0x12	18
127	0x2e	46
128	0xed	-19
129	0xd0	-48
130	0x0e	14
131	0xdc	-36
132	0xc8	-56
133	0x09	9
134	0x14	20
135	0x07	7
136	0xd8	-40
137	0xf3	-13
138	0xa7	-89
139	0x04	4
140	0xd2	-46
141	0xeb	-21
142	0xfe	-2
143	0x1c	28
144	0xd9	-39
145	0xe7	-25
146	0xd5	-43
147	0x3c	60
148	0xf3	-13
149	0x81	-127
150	0x39	57
151	0x44	68
152	0xec	-20
153	0x06	6
154	0x40	64
155	0x20	32
156	0x54	84
157	0xee	-18
158	0x25	37
159	0xc4	-60
160	0xf3	-13
161	0xfc	-4
162	0xd3	-45
163	0x69	105
164	0x5e	94
165	0x18	24
166	0xe1	-31
167	0x36	54
168	0x31	49
169	0x04	4
170	0xe9	-23
171	0xf1	-15
172	0x18	24
173	0x3f	63
174	0x30	48
175	0xe4	-28
176	0xe4	-28
177	0x03	3
178	0xd8	-40
179	0xf3	-13
180	0xd3	-45
181	0x37	55
182	0xb7	-73
183	0x7f	127
184	0xea	-22
185	0xee	-18
186	0x2e	46
187	0xe9	-23
188	0x31	49
189	0x66	102
190	0x3d	61
191	0x3a	58
192	0x17	23
193	0xf8	-8
194	0x12	18
195	0x08	8
196	0x12	18
197	0xf0	-16
198	0xb2	-78
199	0xf3	-13
200	0x44	68
201	0x15	21
202	0x13	19
203	0x1f	31
204	0x49	73
205	0x60	96
206	0xf8	-8
207	0xf6	-10
208	0x25	37
209	0x7f	127
210	0xbe	-66
211	0x0c	12
212	0xff	-1
213	0x0a	10
214	0x2f	47
215	0x2d	45
216	0x10	16
217	0x1e	30
218	0xdf	-33
219	0x01	1
220	0x18	24
221	0xbd	-67
222	0x2c	44
223	0x24	36
224	0xd5	-43
225	0x08	8
226	0x09	9
227	0x81	-127
228	0x1e	30
229	0xcf	-49
230	0x18	24
231	0x16	22
232	0xb7	-73
233	0x26	38
234	0x43	67
235	0xd4	-44
236	0xa9	-87
237	0xea	-22
238	0x16	22
239	0xc7	-57
240	0x04	4
241	0x7f	127
242	0x1a	26
243	0xfd	-3
244	0x04	4
245	0x00	0
246	0x07	7
247	0xfa	-6
248	0x9d	-99
249	0xe9	-23
250	0xf7	-9
251	0x9a	-102
252	0xff	-1
253	0xfe	-2
254	0xf6	-10
255	0x03	3

depthwise_conv2d_1/depthwise_conv2d1 i1 [1, 3, 3, 24]
0	0x15	21
1	0x1c	28
2	0xff	-1
3	0xdc	-36
4	0x83	-125
5	0x0c	12
6	0xf8	-8
7	0x12	18
8	0x1c	28
9	0xfe	-2
10	0xc0	-64
11	0xdf	-33
12	0xe3	-29
13	0xf6	-10
14	0xfc	-4
15	0x04	4
16	0x09	9
17	0x7f	127
18	0xfe	-2
19	0x2c	44
20	0xf8	-8
21	0x31	49
22	0xdc	-36
23	0x1d	29
24	0x46	70
25	0x48	72
26	0x81	-127
27	0x14	20
28	0x88	-120
29	0x0f	15
30	0xef	-17
31	0x1f	31
32	0x47	71
33	0x7f	127
34	0xc5	-59
35	0xcd	-51
36	0xe7	-25
37	0x2b	43
38	0x2c	44
39	0x0c	12
40	0x15	21
41	0xbb	-69
42	0xa8	-88
43	0x01	1
44	0xfc	-4
45	0x5e	94
46	0x04	4
47	0xf4	-12
48	0x0f	15
49	0x2b	43
50	0xbf	-65
51	0x34	52
52	0xed	-19
53	0xf0	-16
54	0x00	0
55	0x09	9
56	0xcf	-49
57	0x3e	62
58	0xfe	-2
59	0x22	34
60	0xeb	-21
61	0xd8	-40
62	0x37	55
63	0xf9	-7
64	0xfc	-4
65	0x09	9
66	0x13	19
67	0xec	-20
68	0xea	-22
69	0x25	37
70	0x07	7
71	0xd6	-42
72	0x47	71
73	0x33	51
74	0x0d	13
75	0x84	-124
76	0x7f	127
77	0x81	-127
78	0xd4	-44
79	0x20	32
80	0x49	73
81	0xa0	-96
82	0xbe	-66
83	0xe2	-30
84	0xe3	-29
85	0x67	103
86	0x91	-111
87	0xfc	-4
88	0x1c	28
89	0x43	67
90	0x7f	127
91	0x64	100
92	0x21	33
93	0x2d	45
94	0xaa	-86
95	0x25	37
96	0x6f	111
97	0x81	-127
98	0xd6	-42
99	0x81	-127
100	0x97	-105
101	0xc4	-60
102	0xb7	-73
103	0x7f	127
104	0x60	96
105	0xa0	-96
106	0x7f	127
107	0xb2	-78
108	0x81	-127
109	0x7f	127
110	0x7f	127
111	0xdd	-35
112	0x81	-127
113	0xe3	-29
114	0xd7	-41
115	0x81	-127
116	0x7f	127
117	0x7f	127
118	0x7f	127
119	0x7f	127
120	0x90	-112
121	0xb8	-72
122	0x21	33
123	0xee	-18
124	0x2d	45
125	0x09	9
126	0x0f	15
127	0x05	5
128	0x6f	111
129	0x50	80
130	0x7f	127
131	0x7f	127
132	0xbf	-65
133	0x34	52
134	0x68	104
135	0xf7	-9
136	0x0e	14
137	0xa9	-87
138	0xdd	-35
139	0xf1	-15
140	0x6d	109
141	0x6a	106
142	0xd3	-45
143	0xf0	-16
144	0x32	50
145	0x09	9
146	0xfd	-3
147	0xfb	-5
148	0x76	118
149	0x37	55
150	0xe5	-27
151	0x13	19
152	0x4d	77
153	0xfe	-2
154	0xed	-19
155	0x02	2
156	0x37	55
157	0x09	9
158	0xee	-18
159	0xfe	-2
160	0xfd	-3
161	0x4d	77
162	0x05	5
163	0x3b	59
164	0x14	20
165	0x21	33
166	0x2a	42
167	0x12	18
168	0xb3	-77
169	0x12	18
170	0xe6	-26
171	0xc4	-60
172	0x9a	-102
173	0x2e	46
174	0x81	-127
175	0x16	22
176	0x1d	29
177	0xc1	-63
178	0x06	6
179	0x06	6
180	0x0b	11
181	0x16	22
182	0x85	-123
183	0x81	-127
184	0x5b	91
185	0x21	33
186	0x2c	44
187	0xe0	-32
188	0x42	66
189	0x11	17
190	0x00	0
191	0x13	19
192	0x81	-127
193	0xe8	-24
194	0x12	18
195	0x07	7
196	0xda	-38
197	0x27	39
198	0xcc	-52
199	0xf8	-8
200	0x7f	127
201	0xfe	-2
202	0x11	17
203	0x15	21
204	0x0b	11
205	0xea	-22
206	0xd8	-40
207	0x19	25
208	0x29	41
209	0xd1	-47
210	0xeb	-21
211	0xf3	-13
212	0x22	34
213	0x12	18
214	0xf6	-10
215	0x0a	10

conv2d_2/conv2d i1 [28, 1, 1, 24]
0	0xd9	-39
1	0x1d	29
2	0xd6	-42
3	0x42	66
4	0x0d	13
5	0x29	41
6	0x4e	78
7	0x03	3
8	0x81	-127
9	0x54	84
10	0xdd	-35
11	0xef	-17
12	0x05	5
13	0xb5	-75
14	0xae	-82
15	0xfe	-2
16	0x20	32
17	0x12	18
18	0x01	1
19	0x18	24
20	0x9b	-101
21	0x33	51
22	0x11	17
23	0x4d	77
24	0x40	64
25	0x68	104
26	0x1a	26
27	0xa1	-95
28	0xdf	-33
29	0x95	-107
30	0xad	-83
31	0x21	33
32	0xb0	-80
33	0xd4	-44
34	0x14	20
35	0xdf	-33
36	0xb8	-72
37	0xd5	-43
38	0xbd	-67
39	0x16	22
40	0x7f	127
41	0xfb	-5
42	0xc6	-58
43	0x92	-110
44	0x00	0
45	0x0c	12
46	0xf3	-13
47	0xf0	-16
48	0x05	5
49	0x41	65
50	0x7f	127
51	0x05	5
52	0xf2	-14
53	0xe6	-26
54	0xf6	-10
55	0xee	-18
56	0xe8	-24
57	0x0b	11
58	0xf6	-10
59	0xf7	-9
60	0x13	19
61	0xf3	-13
62	0x03	3
63	0x0b	11
64	0x08	8
65	0x0d	13
66	0x0c	12
67	0xfc	-4
68	0x16	22
69	0x13	19
70	0xfd	-3
71	0xba	-70
72	0xf5	-11
73	0xf5	-11
74	0xf4	-12
75	0x63	99
76	0x00	0
77	0x08	8
78	0x01	1
79	0xd1	-47
80	0xc3	-61
81	0xfc	-4
82	0x0e	14
83	0x5f	95
84	0x1e	30
85	0x29	41
86	0xf9	-7
87	0x07	7
88	0x09	9
89	0xdf	-33
90	0x09	9
91	0x39	57
92	0x20	32
93	0x81	-127
94	0x36	54
95	0x09	9
96	0x9f	-97
97	0xe8	-24
98	0xef	-17
99	0xf8	-8
100	0x7f	127
101	0xe0	-32
102	0x04	4
103	0xf2	-14
104	0xf8	-8
105	0x24	36
106	0xee	-18
107	0x03	3
108	0xed	-19
109	0xf4	-12
110	0xef	-17
111	0x02	2
112	0x08	8
113	0x04	4
114	0xfb	-5
115	0xe1	-31
116	0x05	5
117	0xfe	-2
118	0x05	5
119	0x09	9
120	0x2c	44
121	0xd5	-43
122	0xf7	-9
123	0x03	3
124	0xfa	-6
125	0xd5	-43
126	0xf9	-7
127	0x00	0
128	0xcf	-49
129	0x81	-127
130	0x12	18
131	0xe7	-25
132	0x1a	26
133	0x08	8
134	0x25	37
135	0x28	40
136	0xfd	-3
137	0xfd	-3
138	0xe9	-23
139	0xfe	-2
140	0xee	-18
141	0xe4	-28
142	0xe4	-28
143	0x05	5
144	0x7f	127
145	0xdd	-35
146	0xf5	-11
147	0xf3	-13
148	0x1a	26
149	0xda	-38
150	0x48	72
151	0xf5	-11
152	0xd0	-48
153	0x1c	28
154	0x1c	28
155	0x5d	93
156	0xf0	-16
157	0xef	-17
158	0x05	5
159	0x30	48
160	0x10	16
161	0xfd	-3
162	0x01	1
163	0xcb	-53
164	0xf5	-11
165	0xbc	-68
166	0x19	25
167	0xff	-1
168	0xa9	-87
169	0x37	55
170	0xfb	-5
171	0x04	4
172	0x12	18
173	0x01	1
174	0xda	-38
175	0x81	-127
176	0xfe	-2
177	0xba	-70
178	0xfd	-3
179	0x32	50
180	0x18	24
181	0x1a	26
182	0x3a	58
183	0x0f	15
184	0x0d	13
185	0xc4	-60
186	0x98	-104
187	0x82	-126
188	0xe8	-24
189	0x37	55
190	0x09	9
191	0x15	21
192	0xd3	-45
193	0xfe	-2
194	0xb9	-71
195	0x58	88
196	0xc8	-56
197	0xef	-17
198	0xd5	-43
199	0x06	6
200	0xe1	-31
201	0x77	119
202	0x16	22
203	0x12	18
204	0xb6	-74
205	0x37	55
206	0xce	-50
207	0x04	4
208	0xf0	-16
209	0x72	114
210	0xe8	-24
211	0xe4	-28
212	0xc9	-55
213	0x01	1
214	0x11	17
215	0x7f	127
216	0x0e	14
217	0x2d	45
218	0x35	53
219	0x1f	31
220	0xdf	-33
221	0x62	98
222	0x3c	60
223	0x81	-127
224	0xfa	-6
225	0xe2	-30
226	0xe0	-32
227	0xca	-54
228	0xed	-19
229	0xfd	-3
230	0x06	6
231	0xf6	-10
232	0x83	-125
233	0x24	36
234	0x5d	93
235	0x21	33
236	0x20	32
237	0x13	19
238	0x11	17
239	0x36	54
240	0x10	16
241	0x09	9
242	0x05	5
243	0x31	49
244	0xf7	-9
245	0xfe	-2
246	0xf8	-8
247	0xfa	-6
248	0xc1	-63
249	0x02	2
250	0x6d	109
251	0xf8	-8
252	0x20	32
253	0x0a	10
254	0x7f	127
255	0xf8	-8

depthwise_conv2d_2/depthwise_conv2d1 i1 [1, 3, 3, 28]
0	0xc4	-60
1	0x3a	58
2	0xda	-38
3	0x95	-107
4	0xdc	-36
5	0x2b	43
6	0x19	25
7	0x29	41
8	0xdb	-37
9	0xcf	-49
10	0xf3	-13
11	0xcf	-49
12	0xdf	-33
13	0x84	-124
14	0x4e	78
15	0x31	49
16	0x60	96
17	0xc7	-57
18	0x7f	127
19	0xe1	-31
20	0x38	56
21	0x31	49
22	0x2f	47
23	0x7f	127
24	0xd4	-44
25	0xc3	-61
26	0x22	34
27	0xbd	-67
28	0xb9	-71
29	0x7f	127
30	0xb8	-72
31	0x81	-127
32	0x9a	-102
33	0x3d	61
34	0x48	72
35	0x56	86
36	0xa7	-89
37	0xcc	-52
38	0x09	9
39	0xba	-70
40	0x9c	-100
41	0x81	-127
42	0x59	89
43	0x4e	78
44	0x7f	127
45	0xeb	-21
46	0x69	105
47	0x88	-120
48	0x3b	59
49	0x41	65
50	0x44	68
51	0x6f	111
52	0xb6	-74
53	0x82	-126
54	0x4e	78
55	0xd7	-41
56	0xf6	-10
57	0x50	80
58	0xd3	-45
59	0xde	-34
60	0xc8	-56
61	0x2c	44
62	0x36	54
63	0x4b	75
64	0xbe	-66
65	0xfc	-4
66	0x9e	-98
67	0xdc	-36
68	0xbb	-69
69	0xf1	-15
70	0x11	17
71	0x2e	46
72	0x0f	15
73	0x27	39
74	0xec	-20
75	0xd4	-44
76	0x24	36
77	0x15	21
78	0x20	32
79	0x1c	28
80	0xd4	-44
81	0xa3	-93
82	0x44	68
83	0xd6	-42
84	0x98	-104
85	0x3f	63
86	0xb4	-76
87	0xb1	-79
88	0xa0	-96
89	0x5a	90
90	0x45	69
91	0x3a	58
92	0xb1	-79
93	0x98	-104
94	0x08	8
95	0xad	-83
96	0xbf	-65
97	0x8e	-114
98	0x64	100
99	0x4a	74
100	0x32	50
101	0xd4	-44
102	0x7a	122
103	0xc0	-64
104	0x5c	92
105	0x57	87
106	0x40	64
107	0x6f	111
108	0xbd	-67
109	0xbc	-68
110	0x3d	61
111	0x81	-127
112	0x81	-127
113	0x7b	123
114	0x81	-127
115	0x94	-108
116	0x81	-127
117	0x7f	127
118	0x7f	127
119	0x7f	127
120	0x81	-127
121	0x81	-127
122	0x1a	26
123	0x81	-127
124	0x81	-127
125	0x83	-125
126	0x7f	127
127	0x7f	127
128	0x14	20
129	0x3d	61
130	0x5e	94
131	0x81	-127
132	0x7f	127
133	0x7f	127
134	0x7f	127
135	0x5c	92
136	0x81	-127
137	0x81	-127
138	0x7f	127
139	0xbc	-68
140	0xe5	-27
141	0x56	86
142	0xc5	-59
143	0xde	-34
144	0xb8	-72
145	0x48	72
146	0x44	68
147	0x46	70
148	0x9c	-100
149	0xd7	-41
150	0x81	-127
151	0xc0	-64
152	0xb1	-79
153	0xea	-22
154	0x2a	42
155	0x4f	79
156	0xcd	-51
157	0x7f	127
158	0xe4	-28
159	0xd6	-42
160	0x3f	63
161	0x39	57
162	0x63	99
163	0x0e	14
164	0xaf	-81
165	0xa3	-93
166	0x4e	78
167	0x0f	15
168	0xb6	-74
169	0x0e	14
170	0xd4	-44
171	0x0a	10
172	0xda	-38
173	0x34	52
174	0x34	52
175	0x1f	31
176	0xe5	-27
177	0xc9	-55
178	0xae	-82
179	0xd8	-40
180	0xe5	-27
181	0xe3	-29
182	0x0c	12
183	0x23	35
184	0xda	-38
185	0x0a	10
186	0x00	0
187	0xf0	-16
188	0x32	50
189	0x2f	47
190	0x3d	61
191	0x0f	15
192	0xda	-38
193	0xf4	-12
194	0x2f	47
195	0xbe	-66
196	0xb4	-76
197	0x15	21
198	0xc8	-56
199	0x06	6
200	0xbe	-66
201	0x45	69
202	0x46	70
203	0x41	65
204	0xc5	-59
205	0xb1	-79
206	0x87	-121
207	0xc2	-62
208	0xc1	-63
209	0xed	-19
210	0x37	55
211	0x44	68
212	0xb8	-72
213	0x5a	90
214	0xf4	-12
215	0xf2	-14
216	0x53	83
217	0x4c	76
218	0x6f	111
219	0x14	20
220	0xbe	-66
221	0xe0	-32
222	0x3b	59
223	0xcc	-52
224	0xe8	-24
225	0x14	20
226	0xe9	-23
227	0xfd	-3
228	0xe2	-30
229	0x1c	28
230	0x1c	28
231	0x19	25
232	0xdc	-36
233	0xde	-34
234	0xca	-54
235	0xe1	-31
236	0xdf	-33
237	0x00	0
238	0x2b	43
239	0x2c	44
240	0xb5	-75
241	0x5f	95
242	0xf2	-14
243	0xf0	-16
244	0x27	39
245	0x28	40
246	0x6c	108
247	0xe3	-29
248	0xe1	-31
249	0xea	-22
250	0x16	22
251	0x2d	45

conv2d_3/conv2d i1 [32, 1, 1, 28]
0	0x1a	26
1	0x27	39
2	0x03	3
3	0x06	6
4	0xfc	-4
5	0xd6	-42
6	0x03	3
7	0xd1	-47
8	0x7f	127
9	0x09	9
10	0x0c	12
11	0xfc	-4
12	0xf8	-8
13	0x0d	13
14	0xe4	-28
15	0x3b	59
16	0x11	17
17	0x1b	27
18	0x0f	15
19	0x10	16
20	0x0e	14
21	0x3e	62
22	0xef	-17
23	0x3a	58
24	0x27	39
25	0xe6	-26
26	0x1f	31
27	0xf4	-12
28	0xa1	-95
29	0xaf	-81
30	0x64	100
31	0xea	-22
32	0x2f	47
33	0x05	5
34	0xa7	-89
35	0xf9	-7
36	0x19	25
37	0xfd	-3
38	0xfe	-2
39	0x7f	127
40	0xa7	-89
41	0xe5	-27
42	0x37	55
43	0xd4	-44
44	0xcc	-52
45	0x33	51
46	0x13	19
47	0x06	6
48	0x0d	13
49	0x3f	63
50	0x43	67
51	0xd9	-39
52	0x3a	58
53	0x25	37
54	0x14	20
55	0xdc	-36
56	0x3b	59
57	0xe0	-32
58	0xdb	-37
59	0x0e	14
60	0xc4	-60
61	0x51	81
62	0xca	-54
63	0xde	-34
64	0x10	16
65	0x7f	127
66	0x2a	42
67	0x07	7
68	0x6a	106
69	0x33	51
70	0xce	-50
71	0xf3	-13
72	0x45	69
73	0x01	1
74	0x0f	15
75	0x0b	11
76	0x5c	92
77	0xf6	-10
78	0x2a	42
79	0xb6	-74
80	0x0a	10
81	0x0e	14
82	0x01	1
83	0xf7	-9
84	0x1b	27
85	0xdc	-36
86	0x05	5
87	0x7f	127
88	0xe8	-24
89	0xe4	-28
90	0x0e	14
91	0x02	2
92	0x14	20
93	0x05	5
94	0xe1	-31
95	0x00	0
96	0xe0	-32
97	0x33	51
98	0xf9	-7
99	0x13	19
100	0xf6	-10
101	0x16	22
102	0x0d	13
103	0xfb	-5
104	0x12	18
105	0x49	73
106	0x0c	12
107	0x39	57
108	0xbe	-66
109	0x03	3
110	0x0c	12
111	0xee	-18
112	0x02	2
113	0xfa	-6
114	0xda	-38
115	0xe9	-23
116	0xd3	-45
117	0x32	50
118	0xf7	-9
119	0xaa	-86
120	0x02	2
121	0x00	0
122	0xe4	-28
123	0xa7	-89
124	0x1f	31
125	0x06	6
126	0xfe	-2
127	0x51	81
128	0x2f	47
129	0xe4	-28
130	0xee	-18
131	0x05	5
132	0xab	-85
133	0xb1	-79
134	0xfc	-4
135	0xf9	-7
136	0x31	49
137	0x50	80
138	0x81	-127
139	0xaf	-81
140	0x06	6
141	0xcf	-49
142	0xb1	-79
143	0xc1	-63
144	0xde	-34
145	0x04	4
146	0x1b	27
147	0xf9	-7
148	0x03	3
149	0xf7	-9
150	0x0c	12
151	0xf2	-14
152	0x1c	28
153	0x11	17
154	0xbd	-67
155	0x1a	26
156	0xf8	-8
157	0x33	51
158	0xf8	-8
159	0x19	25
160	0xcd	-51
161	0xf5	-11
162	0x12	18
163	0xf1	-15
164	0xc8	-56
165	0x81	-127
166	0xe8	-24
167	0x22	34
168	0x1b	27
169	0x1b	27
170	0x1e	30
171	0x1e	30
172	0x04	4
173	0xe9	-23
174	0x00	0
175	0x36	54
176	0xf5	-11
177	0x01	1
178	0x08	8
179	0x16	22
180	0x09	9
181	0x31	49
182	0x03	3
183	0xc8	-56
184	0xf0	-16
185	0xc9	-55
186	0xee	-18
187	0x2a	42
188	0x41	65
189	0xf9	-7
190	0xdb	-37
191	0x02	2
192	0xd9	-39
193	0x81	-127
194	0x22	34
195	0xcd	-51
196	0x7f	127
197	0xd6	-42
198	0xd6	-42
199	0xe0	-32
200	0xe1	-31
201	0x4b	75
202	0xf4	-12
203	0x43	67
204	0x1a	26
205	0x25	37
206	0x20	32
207	0xd7	-41
208	0xff	-1
209	0x23	35
210	0x8e	-114
211	0xcb	-53
212	0x66	102
213	0x06	6
214	0xc8	-56
215	0x11	17
216	0x62	98
217	0x69	105
218	0xb1	-79
219	0x0f	15
220	0xff	-1
221	0xea	-22
222	0x53	83
223	0x4d	77
224	0xf9	-7
225	0xfe	-2
226	0x8e	-114
227	0x25	37
228	0x22	34
229	0x3c	60
230	0xdc	-36
231	0xdb	-37
232	0x14	20
233	0xc9	-55
234	0xfb	-5
235	0x0f	15
236	0x1d	29
237	0x2e	46
238	0x03	3
239	0xa8	-88
240	0xdf	-33
241	0xea	-22
242	0x0e	14
243	0x42	66
244	0x0a	10
245	0xef	-17
246	0xb5	-75
247	0xd7	-41
248	0x2e	46
249	0x81	-127
250	0x3b	59
251	0x0b	11
252	0xef	-17
253	0xfb	-5
254	0xd4	-44
255	0xb9	-71

depthwise_conv2d_3/depthwise_conv2d i1 [1, 3, 3, 32]
0	0x07	7
1	0xf1	-15
2	0xcc	-52
3	0xdc	-36
4	0x82	-126
5	0xff	-1
6	0x05	5
7	0xf0	-16
8	0x02	2
9	0xfe	-2
10	0x07	7
11	0xfa	-6
12	0x3d	61
13	0x25	37
14	0x2a	42
15	0x33	51
16	0xe5	-27
17	0xf6	-10
18	0x0e	14
19	0x09	9
20	0x2d	45
21	0x13	19
22	0x0c	12
23	0xd4	-44
24	0x7f	127
25	0x09	9
26	0x7f	127
27	0xc3	-61
28	0xe4	-28
29	0x1b	27
30	0x6c	108
31	0x7e	126
32	0x33	51
33	0xd7	-41
34	0x8a	-118
35	0xd5	-43
36	0x10	16
37	0x02	2
38	0x35	53
39	0xcf	-49
40	0x9e	-98
41	0x2a	42
42	0x2b	43
43	0x1e	30
44	0xbd	-67
45	0x2c	44
46	0x12	18
47	0x7f	127
48	0xfb	-5
49	0x0e	14
50	0x10	16
51	0xe5	-27
52	0x7f	127
53	0xa1	-95
54	0x81	-127
55	0xbd	-67
56	0x31	49
57	0xf8	-8
58	0x46	70
59	0x81	-127
60	0xc5	-59
61	0xbb	-69
62	0x2e	46
63	0x7f	127
64	0x21	33
65	0x01	1
66	0xd8	-40
67	0xe3	-29
68	0x7f	127
69	0x0b	11
70	0x0d	13
71	0xf1	-15
72	0x05	5
73	0x34	52
74	0x16	22
75	0x0a	10
76	0xf0	-16
77	0x0c	12
78	0xe9	-23
79	0x46	70
80	0xe9	-23
81	0x05	5
82	0xfb	-5
83	0x08	8
84	0x3d	61
85	0x04	4
86	0xca	-54
87	0xe4	-28
88	0xdb	-37
89	0xdd	-35
90	0x07	7
91	0x04	4
92	0xe5	-27
93	0xf3	-13
94	0xe1	-31
95	0xf8	-8
96	0xf0	-16
97	0xce	-50
98	0xba	-70
99	0x24	36
100	0x07	7
101	0xf4	-12
102	0x55	85
103	0xef	-17
104	0xed	-19
105	0xe4	-28
106	0x24	36
107	0xf0	-16
108	0x7f	127
109	0x2d	45
110	0x19	25
111	0x21	33
112	0x1c	28
113	0x20	32
114	0xfd	-3
115	0xff	-1
116	0x0e	14
117	0x65	101
118	0x39	57
119	0x8a	-118
120	0x73	115
121	0x17	23
122	0x14	20
123	0xc8	-56
124	0xeb	-21
125	0xa7	-89
126	0x6d	109
127	0x1c	28
128	0x81	-127
129	0x81	-127
130	0x81	-127
131	0x7f	127
132	0x50	80
133	0x81	-127
134	0x7f	127
135	0x81	-127
136	0x7f	127
137	0x7f	127
138	0x7f	127
139	0x7f	127
140	0xca	-54
141	0x7f	127
142	0x7f	127
143	0x4c	76
144	0x81	-127
145	0x7f	127
146	0x7f	127
147	0x81	-127
148	0xf3	-13
149	0x81	-127
150	0xa4	-92
151	0x95	-107
152	0x2e	46
153	0x7f	127
154	0xf8	-8
155	0x14	20
156	0x81	-127
157	0x81	-127
158	0x8e	-114
159	0xfb	-5
160	0xff	-1
161	0xe4	-28
162	0xbc	-68
163	0xf3	-13
164	0x77	119
165	0x02	2
166	0x1d	29
167	0xe1	-31
168	0x05	5
169	0x29	41
170	0x3f	63
171	0xf4	-12
172	0xd6	-42
173	0x20	32
174	0x2e	46
175	0x38	56
176	0xa6	-90
177	0x38	56
178	0xfe	-2
179	0x01	1
180	0xc8	-56
181	0xbf	-65
182	0xde	-34
183	0x81	-127
184	0xda	-38
185	0xff	-1
186	0xe2	-30
187	0x34	52
188	0xad	-83
189	0x30	48
190	0x29	41
191	0xce	-50
192	0x16	22
193	0xdc	-36
194	0x91	-111
195	0x01	1
196	0x17	23
197	0x13	19
198	0x38	56
199	0x03	3
200	0xcd	-51
201	0x01	1
202	0x0f	15
203	0x01	1
204	0x19	25
205	0x35	53
206	0xf9	-7
207	0x5b	91
208	0x0f	15
209	0xf6	-10
210	0xf6	-10
211	0xf4	-12
212	0xc1	-63
213	0x14	20
214	0xe4	-28
215	0xc6	-58
216	0xed	-19
217	0xf0	-16
218	0xed	-19
219	0x4c	76
220	0xf9	-7
221	0xd6	-42
222	0xbb	-69
223	0xe8	-24
224	0xec	-20
225	0xc7	-57
226	0x9e	-98
227	0x16	22
228	0x9a	-102
229	0x04	4
230	0x10	16
231	0x1f	31
232	0x20	32
233	0x16	22
234	0x27	39
235	0x07	7
236	0x4a	74
237	0x56	86
238	0x02	2
239	0x05	5
240	0x12	18
241	0x13	19
242	0x03	3
243	0xfb	-5
244	0x96	-106
245	0x37	55
246	0x22	34
247	0xb5	-75
248	0xdf	-33
249	0x1f	31
250	0xf7	-9
251	0x66	102
252	0xef	-17
253	0xa5	-91
254	0x81	-127
255	0x01	1

conv2d_4/conv2d i1 [36, 1, 1, 32]
0	0x7f	127
1	0xf5	-11
2	0x19	25
3	0x25	37
4	0x05	5
5	0xfa	-6
6	0x09	9
7	0x07	7
8	0x39	57
9	0xe7	-25
10	0x03	3
11	0xfe	-2
12	0xdc	-36
13	0x27	39
14	0xfc	-4
15	0x0f	15
16	0xeb	-21
17	0xac	-84
18	0x0c	12
19	0x02	2
20	0xf4	-12
21	0x0d	13
22	0x1d	29
23	0xfd	-3
24	0xe5	-27
25	0x02	2
26	0x10	16
27	0x02	2
28	0x1d	29
29	0x2f	47
30	0x17	23
31	0xb7	-73
32	0x17	23
33	0x65	101
34	0x24	36
35	0xec	-20
36	0x45	69
37	0xf8	-8
38	0x11	17
39	0x47	71
40	0x18	24
41	0x1d	29
42	0x0f	15
43	0xfc	-4
44	0x53	83
45	0x3a	58
46	0xdb	-37
47	0x03	3
48	0x97	-105
49	0xd9	-39
50	0x23	35
51	0xe7	-25
52	0x08	8
53	0x46	70
54	0xcf	-49
55	0x32	50
56	0x17	23
57	0xec	-20
58	0xd3	-45
59	0x19	25
60	0x7f	127
61	0x45	69
62	0x3b	59
63	0xce	-50
64	0xf2	-14
65	0xf0	-16
66	0x0f	15
67	0xc7	-57
68	0xec	-20
69	0x06	6
70	0xea	-22
71	0x7f	127
72	0xd3	-45
73	0xfd	-3
74	0x04	4
75	0x29	41
76	0xd9	-39
77	0x95	-107
78	0xe3	-29
79	0xf2	-14
80	0x0b	11
81	0xed	-19
82	0x05	5
83	0x2e	46
84	0xf0	-16
85	0xbb	-69
86	0xfa	-6
87	0xdb	-37
88	0xf3	-13
89	0xd2	-46
90	0xba	-70
91	0xf9	-7
92	0x34	52
93	0x44	68
94	0x6e	110
95	0xa4	-92
96	0x0f	15
97	0xe3	-29
98	0x15	21
99	0x81	-127
100	0x04	4
101	0xc7	-57
102	0x27	39
103	0xc2	-62
104	0x3e	62
105	0x39	57
106	0x2c	44
107	0x01	1
108	0xba	-70
109	0x3e	62
110	0xfe	-2
111	0xbe	-66
112	0x6b	107
113	0xc0	-64
114	0xe5	-27
115	0xd6	-42
116	0x1e	30
117	0x30	48
118	0x38	56
119	0xba	-70
120	0x6f	111
121	0xbb	-69
122	0x36	54
123	0xd9	-39
124	0x81	-127
125	0xfb	-5
126	0x6a	106
127	0x0c	12
128	0xe5	-27
129	0x16	22
130	0xe9	-23
131	0x81	-127
132	0xc4	-60
133	0x22	34
134	0xd6	-42
135	0x35	53
136	0xb6	-74
137	0x19	25
138	0xea	-22
139	0xf8	-8
140	0xdc	-36
141	0x89	-119
142	0x17	23
143	0xf7	-9
144	0xc1	-63
145	0xcb	-53
146	0x42	66
147	0x13	19
148	0x16	22
149	0x32	50
150	0x1f	31
151	0xfe	-2
152	0x0a	10
153	0xc9	-55
154	0xfb	-5
155	0xf9	-7
156	0x14	20
157	0x4f	79
158	0xec	-20
159	0x2e	46
160	0x2a	42
161	0x0e	14
162	0xf9	-7
163	0xb3	-77
164	0xfa	-6
165	0x7f	127
166	0x15	21
167	0x0a	10
168	0xf9	-7
169	0xea	-22
170	0x19	25
171	0x00	0
172	0xbd	-67
173	0xf6	-10
174	0xea	-22
175	0xf9	-7
176	0x2f	47
177	0xde	-34
178	0x03	3
179	0xfe	-2
180	0x15	21
181	0xed	-19
182	0xf9	-7
183	0xfe	-2
184	0xff	-1
185	0x19	25
186	0xf8	-8
187	0xef	-17
188	0x1c	28
189	0xb6	-74
190	0x0b	11
191	0xf0	-16
192	0xf0	-16
193	0xc7	-57
194	0x6f	111
195	0x11	17
196	0x77	119
197	0x29	41
198	0x93	-109
199	0xee	-18
200	0x0d	13
201	0x06	6
202	0x11	17
203	0xe5	-27
204	0xde	-34
205	0x0c	12
206	0x3e	62
207	0x3d	61
208	0xa6	-90
209	0x29	41
210	0x0c	12
211	0xe3	-29
212	0x9a	-102
213	0x3d	61
214	0xbe	-66
215	0x05	5
216	0xf8	-8
217	0xfa	-6
218	0xf7	-9
219	0xb8	-72
220	0x12	18
221	0x45	69
222	0x81	-127
223	0xeb	-21
224	0x15	21
225	0x75	117
226	0x87	-121
227	0x45	69
228	0xe4	-28
229	0x28	40
230	0xc4	-60
231	0x48	72
232	0x3e	62
233	0xfa	-6
234	0x03	3
235	0x14	20
236	0xa4	-92
237	0xfe	-2
238	0x9d	-99
239	0x36	54
240	0x19	25
241	0xd6	-42
242	0xe8	-24
243	0x17	23
244	0xf9	-7
245	0xbd	-67
246	0x19	25
247	0x1b	27
248	0x61	97
249	0x9a	-102
250	0xe0	-32
251	0xc2	-62
252	0x7d	125
253	0x7f	127
254	0xfe	-2
255	0xee	-18

depthwise_conv2d_4/depthwise_conv2d1 i1 [1, 3, 3, 36]
0	0x23	35
1	0x91	-111
2	0xdb	-37
3	0xe6	-26
4	0x40	64
5	0x19	25
6	0x07	7
7	0x20	32
8	0x22	34
9	0x19	25
10	0xe3	-29
11	0xf7	-9
12	0xd5	-43
13	0xf9	-7
14	0x0d	13
15	0x22	34
16	0xba	-70
17	0xc1	-63
18	0xd2	-46
19	0x00	0
20	0xff	-1
21	0x08	8
22	0x2a	42
23	0xdf	-33
24	0x00	0
25	0xee	-18
26	0xe7	-25
27	0xd3	-45
28	0xe3	-29
29	0xfb	-5
30	0xcc	-52
31	0xaf	-81
32	0x45	69
33	0x54	84
34	0x48	72
35	0x47	71
36	0xc4	-60
37	0xb5	-75
38	0xcf	-49
39	0x5f	95
40	0x6d	109
41	0x72	114
42	0x15	21
43	0xea	-22
44	0x03	3
45	0x48	72
46	0x56	86
47	0xe8	-24
48	0x19	25
49	0x15	21
50	0x19	25
51	0x6d	109
52	0xfa	-6
53	0xc2	-62
54	0xa5	-91
55	0x81	-127
56	0xd7	-41
57	0xe2	-30
58	0x25	37
59	0x8e	-114
60	0xb1	-79
61	0x04	4
62	0x75	117
63	0x66	102
64	0x7f	127
65	0x8b	-117
66	0x34	52
67	0x81	-127
68	0x31	49
69	0x6a	106
70	0x5f	95
71	0x55	85
72	0x82	-126
73	0x7f	127
74	0x26	38
75	0x2e	46
76	0xdb	-37
77	0x44	68
78	0x0a	10
79	0xc4	-60
80	0xe9	-23
81	0x34	52
82	0x5f	95
83	0xef	-17
84	0x39	57
85	0x00	0
86	0x1a	26
87	0x15	21
88	0x17	23
89	0xfc	-4
90	0x21	33
91	0x08	8
92	0xdd	-35
93	0xc5	-59
94	0xe6	-26
95	0x81	-127
96	0xd2	-46
97	0x22	34
98	0x4a	74
99	0x7f	127
100	0x62	98
101	0xb8	-72
102	0x17	23
103	0xc5	-59
104	0x71	113
105	0xe7	-25
106	0x65	101
107	0x39	57
108	0xad	-83
109	0xac	-84
110	0xbd	-67
111	0xf4	-12
112	0x15	21
113	0x81	-127
114	0xfc	-4
115	0x43	67
116	0x14	20
117	0x1b	27
118	0x92	-110
119	0xfc	-4
120	0xc1	-63
121	0x0e	14
122	0x15	21
123	0xe3	-29
124	0x9b	-101
125	0x82	-126
126	0x9d	-99
127	0xe3	-29
128	0xf9	-7
129	0xfd	-3
130	0x38	56
131	0x2d	45
132	0x1e	30
133	0x50	80
134	0x99	-103
135	0x9f	-97
136	0xa0	-96
137	0xd8	-40
138	0x81	-127
139	0xde	-34
140	0x2b	43
141	0x7f	127
142	0x23	35
143	0x58	88
144	0x81	-127
145	0xda	-38
146	0xf0	-16
147	0x7f	127
148	0x7f	127
149	0x9d	-99
150	0x7f	127
151	0x6e	110
152	0xa9	-87
153	0x7f	127
154	0x81	-127
155	0x7f	127
156	0x81	-127
157	0x7f	127
158	0x7f	127
159	0x7f	127
160	0x67	103
161	0x81	-127
162	0x08	8
163	0xdf	-33
164	0x81	-127
165	0x81	-127
166	0x7f	127
167	0xcc	-52
168	0x81	-127
169	0x7f	127
170	0x0d	13
171	0x09	9
172	0xb4	-76
173	0x81	-127
174	0xcd	-51
175	0x59	89
176	0x47	71
177	0x65	101
178	0x7f	127
179	0x7f	127
180	0xd3	-45
181	0x7c	124
182	0x7f	127
183	0x1d	29
184	0xce	-50
185	0x75	117
186	0x08	8
187	0x81	-127
188	0xaf	-81
189	0x64	100
190	0x5f	95
191	0xf3	-13
192	0x05	5
193	0x1e	30
194	0x0e	14
195	0x44	68
196	0x7f	127
197	0xb2	-78
198	0x7f	127
199	0x4e	78
200	0x17	23
201	0xce	-50
202	0x04	4
203	0xb7	-73
204	0x89	-119
205	0x0f	15
206	0x13	19
207	0x6e	110
208	0x22	34
209	0xf7	-9
210	0x49	73
211	0x23	35
212	0x7f	127
213	0xba	-70
214	0x78	120
215	0x28	40
216	0x96	-106
217	0x15	21
218	0xde	-34
219	0xde	-34
220	0x01	1
221	0xd0	-48
222	0xfa	-6
223	0x37	55
224	0xf2	-14
225	0xfb	-5
226	0xbd	-67
227	0xfe	-2
228	0xf0	-16
229	0xf6	-10
230	0x00	0
231	0xc1	-63
232	0x00	0
233	0xd4	-44
234	0x10	16
235	0x40	64
236	0xf8	-8
237	0xf8	-8
238	0xe3	-29
239	0x25	37
240	0x21	33
241	0x49	73
242	0xc4	-60
243	0xee	-18
244	0xd9	-39
245	0x36	54
246	0xc4	-60
247	0x2e	46
248	0x07	7
249	0x12	18
250	0x1c	28
251	0x39	57
252	0xf2	-14
253	0x6f	111
254	0xd0	-48
255	0xb0	-80

conv2d_5/conv2d i1 [42, 1, 1, 36]
0	0x40	64
1	0xd4	-44
2	0xe7	-25
3	0x0e	14
4	0xdd	-35
5	0x97	-105
6	0x09	9
7	0x2d	45
8	0xef	-17
9	0x25	37
10	0x1a	26
11	0x0d	13
12	0xf3	-13
13	0xdf	-33
14	0xe1	-31
15	0x2a	42
16	0xe6	-26
17	0x0f	15
18	0xee	-18
19	0x37	55
20	0xe0	-32
21	0xff	-1
22	0xca	-54
23	0xfc	-4
24	0x0a	10
25	0x08	8
26	0x05	5
27	0x60	96
28	0x7f	127
29	0x1b	27
30	0x30	48
31	0xce	-50
32	0xf4	-12
33	0x1d	29
34	0x03	3
35	0xb9	-71
36	0xdb	-37
37	0x3f	63
38	0xea	-22
39	0xde	-34
40	0xed	-19
41	0x11	17
42	0x97	-105
43	0x35	53
44	0xde	-34
45	0xac	-84
46	0x03	3
47	0xf7	-9
48	0x0c	12
49	0xe4	-28
50	0xeb	-21
51	0xe8	-24
52	0xec	-20
53	0x13	19
54	0x1e	30
55	0xd1	-47
56	0x0e	14
57	0x96	-106
58	0x14	20
59	0xe3	-29
60	0xfa	-6
61	0xbd	-67
62	0x31	49
63	0x13	19
64	0x06	6
65	0xc5	-59
66	0x7f	127
67	0x2f	47
68	0x81	-127
69	0xf4	-12
70	0xf3	-13
71	0x04	4
72	0xd5	-43
73	0xf7	-9
74	0xf0	-16
75	0x2a	42
76	0xe8	-24
77	0xc5	-59
78	0xed	-19
79	0x11	17
80	0xc7	-57
81	0xf6	-10
82	0x3b	59
83	0x14	20
84	0x01	1
85	0x27	39
86	0xf3	-13
87	0x25	37
88	0x13	19
89	0xf2	-14
90	0xdb	-37
91	0x97	-105
92	0xfd	-3
93	0x19	25
94	0xfc	-4
95	0x35	53
96	0xe9	-23
97	0x15	21
98	0x6d	109
99	0xec	-20
100	0x81	-127
101	0x31	49
102	0x07	7
103	0x40	64
104	0x09	9
105	0xe0	-32
106	0x03	3
107	0xdd	-35
108	0xd6	-42
109	0xc5	-59
110	0xd4	-44
111	0x81	-127
112	0xcd	-51
113	0x21	33
114	0x2d	45
115	0xe3	-29
116	0xf8	-8
117	0xfe	-2
118	0xf4	-12
119	0xf9	-7
120	0xd9	-39
121	0x07	7
122	0xd1	-47
123	0x22	34
124	0x3e	62
125	0x56	86
126	0xea	-22
127	0xd7	-41
128	0xdb	-37
129	0x60	96
130	0xf9	-7
131	0x1e	30
132	0x4a	74
133	0xc5	-59
134	0x17	23
135	0x2c	44
136	0xf6	-10
137	0x95	-107
138	0xb3	-77
139	0xfb	-5
140	0xb2	-78
141	0xae	-82
142	0x10	16
143	0xb3	-77
144	0xd7	-41
145	0xaa	-86
146	0x0a	10
147	0xf7	-9
148	0x9c	-100
149	0xc3	-61
150	0xf6	-10
151	0xe0	-32
152	0x53	83
153	0x24	36
154	0xcf	-49
155	0x52	82
156	0x54	84
157	0xbf	-65
158	0x07	7
159	0xe6	-26
160	0x8e	-114
161	0x03	3
162	0x32	50
163	0x22	34
164	0xfd	-3
165	0x18	24
166	0x45	69
167	0xa6	-90
168	0x40	64
169	0x37	55
170	0x17	23
171	0x4b	75
172	0x0b	11
173	0xfb	-5
174	0x7f	127
175	0x59	89
176	0xfa	-6
177	0x0f	15
178	0x9e	-98
179	0x01	1
180	0x1b	27
181	0xf7	-9
182	0x10	16
183	0xcd	-51
184	0xdc	-36
185	0x3b	59
186	0x08	8
187	0xd4	-44
188	0x39	57
189	0x25	37
190	0x11	17
191	0xd7	-41
192	0xeb	-21
193	0xba	-70
194	0xe7	-25
195	0x2a	42
196	0x01	1
197	0x3f	63
198	0xd3	-45
199	0xd8	-40
200	0xc6	-58
201	0x24	36
202	0xd9	-39
203	0x59	89
204	0xda	-38
205	0x03	3
206	0x1b	27
207	0x12	18
208	0xf1	-15
209	0x81	-127
210	0x17	23
211	0xfb	-5
212	0xd2	-46
213	0xf7	-9
214	0xb3	-77
215	0xc7	-57
216	0xdc	-36
217	0x18	24
218	0x09	9
219	0x28	40
220	0xeb	-21
221	0x23	35
222	0x81	-127
223	0x04	4
224	0x17	23
225	0xfc	-4
226	0x05	5
227	0x06	6
228	0xf3	-13
229	0xf3	-13
230	0xf4	-12
231	0x10	16
232	0xee	-18
233	0x2e	46
234	0xf5	-11
235	0x18	24
236	0xe9	-23
237	0xea	-22
238	0xdf	-33
239	0x0d	13
240	0x09	9
241	0xc3	-61
242	0xeb	-21
243	0xef	-17
244	0xfd	-3
245	0x1d	29
246	0x24	36
247	0xe7	-25
248	0x2f	47
249	0xfa	-6
250	0x05	5
251	0xb6	-74
252	0x03	3
253	0x21	33
254	0x3c	60
255	0xd9	-39

depthwise_conv2d_5/depthwise_conv2d1 i1 [1, 3, 3, 42]
0	0x29	41
1	0x7f	127
2	0x37	55
3	0x82	-126
4	0x1c	28
5	0x03	3
6	0xaa	-86
7	0x3f	63
8	0x81	-127
9	0xac	-84
10	0x01	1
11	0x43	67
12	0x09	9
13	0xef	-17
14	0x7f	127
15	0x0c	12
16	0xc0	-64
17	0x10	16
18	0x42	66
19	0xfd	-3
20	0x07	7
21	0xb4	-76
22	0xce	-50
23	0xdc	-36
24	0x2f	47
25	0xcd	-51
26	0x1a	26
27	0x4f	79
28	0x05	5
29	0xd7	-41
30	0x07	7
31	0x79	121
32	0xd7	-41
33	0xad	-83
34	0xc2	-62
35	0x9a	-102
36	0xa3	-93
37	0xaa	-86
38	0xe1	-31
39	0x5e	94
40	0xf5	-11
41	0xb1	-79
42	0x63	99
43	0x65	101
44	0x57	87
45	0x81	-127
46	0x4f	79
47	0x55	85
48	0xcc	-52
49	0x31	49
50	0xae	-82
51	0xdd	-35
52	0x0e	14
53	0x0d	13
54	0x81	-127
55	0xb7	-73
56	0x73	115
57	0x59	89
58	0xa8	-88
59	0x02	2
60	0xdb	-37
61	0x36	54
62	0x71	113
63	0x81	-127
64	0xd1	-47
65	0xb3	-77
66	0xff	-1
67	0x89	-119
68	0x43	67
69	0x3e	62
70	0xbf	-65
71	0xb6	-74
72	0x0a	10
73	0x3e	62
74	0xb4	-76
75	0xbc	-68
76	0x65	101
77	0xb3	-77
78	0x98	-104
79	0x9b	-101
80	0xe3	-29
81	0x7f	127
82	0xb1	-79
83	0xbb	-69
84	0x50	80
85	0xf0	-16
86	0x31	49
87	0xf3	-13
88	0x33	51
89	0x38	56
90	0x4f	79
91	0xf4	-12
92	0x11	17
93	0x2c	44
94	0x12	18
95	0x81	-127
96	0x92	-110
97	0x84	-124
98	0x18	24
99	0x53	83
100	0xda	-38
101	0xe1	-31
102	0xab	-85
103	0x24	36
104	0x7f	127
105	0xbe	-66
106	0xdd	-35
107	0xdc	-36
108	0xef	-17
109	0x81	-127
110	0x3a	58
111	0xf6	-10
112	0xaa	-86
113	0xe2	-30
114	0x16	22
115	0xfa	-6
116	0xbe	-66
117	0x05	5
118	0x7e	126
119	0xf6	-10
120	0xc3	-61
121	0xd7	-41
122	0xfa	-6
123	0x46	70
124	0x8e	-114
125	0xd8	-40
126	0x33	51
127	0x76	118
128	0x71	113
129	0x87	-121
130	0x3f	63
131	0x02	2
132	0xc8	-56
133	0xf9	-7
134	0x95	-107
135	0xdc	-36
136	0x2f	47
137	0x2b	43
138	0x62	98
139	0x5a	90
140	0x4e	78
141	0x27	39
142	0x81	-127
143	0xc0	-64
144	0x7f	127
145	0x25	37
146	0x8b	-117
147	0xa8	-88
148	0xb3	-77
149	0x81	-127
150	0x7f	127
151	0xeb	-21
152	0x50	80
153	0x44	68
154	0xd9	-39
155	0xb7	-73
156	0x54	84
157	0x6a	106
158	0xf4	-12
159	0x81	-127
160	0x9a	-102
161	0x8b	-117
162	0x81	-127
163	0xb2	-78
164	0x14	20
165	0x62	98
166	0xaa	-86
167	0x81	-127
168	0x7f	127
169	0x52	82
170	0x7f	127
171	0xaa	-86
172	0x7f	127
173	0x7f	127
174	0x3f	63
175	0xb4	-76
176	0x08	8
177	0x42	66
178	0x5f	95
179	0xf1	-15
180	0xf8	-8
181	0x56	86
182	0x04	4
183	0x7f	127
184	0xba	-70
185	0x89	-119
186	0x0b	11
187	0x71	113
188	0x45	69
189	0x82	-126
190	0x81	-127
191	0x81	-127
192	0x56	86
193	0x05	5
194	0x7f	127
195	0x7f	127
196	0x81	-127
197	0x81	-127
198	0x7e	126
199	0x7f	127
200	0x81	-127
201	0xab	-85
202	0xd1	-47
203	0x81	-127
204	0x85	-123
205	0x81	-127
206	0x68	104
207	0x6a	106
208	0x81	-127
209	0xaa	-86
210	0x47	71
211	0xe2	-30
212	0x2e	46
213	0x07	7
214	0x58	88
215	0x6c	108
216	0x7f	127
217	0xab	-85
218	0x6e	110
219	0x64	100
220	0x68	104
221	0xc0	-64
222	0xc3	-61
223	0x10	16
224	0xf0	-16
225	0x6a	106
226	0xf3	-13
227	0xae	-82
228	0xb6	-74
229	0x7f	127
230	0x72	114
231	0xce	-50
232	0xa4	-92
233	0xb9	-71
234	0xf6	-10
235	0x0f	15
236	0x59	89
237	0x2d	45
238	0x9c	-100
239	0xcc	-52
240	0x47	71
241	0x2a	42
242	0x83	-125
243	0xf5	-11
244	0x2a	42
245	0xd0	-48
246	0xd8	-40
247	0xb2	-78
248	0x5a	90
249	0x30	48
250	0x9b	-101
251	0xfb	-5
252	0x20	32
253	0x06	6
254	0x3a	58
255	0xad	-83

conv2d_6/conv2d i1 [48, 1, 1, 42]
0	0xcf	-49
1	0x47	71
2	0xf2	-14
3	0xe0	-32
4	0xae	-82
5	0x7f	127
6	0x34	52
7	0xf6	-10
8	0x0e	14
9	0x0f	15
10	0x4d	77
11	0x0f	15
12	0x2c	44
13	0x3d	61
14	0x0b	11
15	0xef	-17
16	0x26	38
17	0xe7	-25
18	0xe2	-30
19	0x21	33
20	0xcf	-49
21	0x23	35
22	0xe3	-29
23	0x52	82
24	0x6e	110
25	0xc5	-59
26	0x1a	26
27	0xb9	-71
28	0x00	0
29	0x65	101
30	0xac	-84
31	0x92	-110
32	0xef	-17
33	0x2d	45
34	0x3a	58
35	0x63	99
36	0x8e	-114
37	0x3f	63
38	0xde	-34
39	0xfa	-6
40	0x39	57
41	0xe9	-23
42	0x05	5
43	0xd8	-40
44	0x0c	12
45	0xdc	-36
46	0xe3	-29
47	0x19	25
48	0x36	54
49	0xfb	-5
50	0xd0	-48
51	0xe3	-29
52	0x31	49
53	0xce	-50
54	0x05	5
55	0x10	16
56	0xf9	-7
57	0x2b	43
58	0x09	9
59	0xe9	-23
60	0x01	1
61	0x05	5
62	0x03	3
63	0x4b	75
64	0x1a	26
65	0x07	7
66	0x07	7
67	0x11	17
68	0x11	17
69	0x01	1
70	0xc7	-57
71	0x7f	127
72	0xd0	-48
73	0x12	18
74	0x2e	46
75	0xc0	-64
76	0x03	3
77	0x19	25
78	0x24	36
79	0x98	-104
80	0xdb	-37
81	0x91	-111
82	0xbe	-66
83	0xb6	-74
84	0xb6	-74
85	0x1e	30
86	0x69	105
87	0xe9	-23
88	0xed	-19
89	0xea	-22
90	0x7f	127
91	0xed	-19
92	0xeb	-21
93	0xee	-18
94	0xd7	-41
95	0x3e	62
96	0xe5	-27
97	0xe7	-25
98	0x03	3
99	0xf9	-7
100	0x22	34
101	0x3c	60
102	0xbd	-67
103	0x31	49
104	0x18	24
105	0xe2	-30
106	0xab	-85
107	0x9f	-97
108	0xcd	-51
109	0xd7	-41
110	0x24	36
111	0xf9	-7
112	0x2a	42
113	0x9e	-98
114	0xf6	-10
115	0x21	33
116	0x4a	74
117	0x1a	26
118	0x01	1
119	0x27	39
120	0xf0	-16
121	0xc7	-57
122	0x08	8
123	0x27	39
124	0xd3	-45
125	0xe4	-28
126	0x1e	30
127	0xfd	-3
128	0xdd	-35
129	0x53	83
130	0x1c	28
131	0x06	6
132	0xe1	-31
133	0x10	16
134	0x02	2
135	0x18	24
136	0x25	37
137	0x2e	46
138	0x2f	47
139	0xe0	-32
140	0xc4	-60
141	0x42	66
142	0x1c	28
143	0xff	-1
144	0x1a	26
145	0x1e	30
146	0xc3	-61
147	0x0e	14
148	0x81	-127
149	0x00	0
150	0x7a	122
151	0xab	-85
152	0x21	33
153	0x44	68
154	0x23	35
155	0xe0	-32
156	0xd8	-40
157	0xfa	-6
158	0xd8	-40
159	0x3c	60
160	0x43	67
161	0xcd	-51
162	0xf2	-14
163	0x18	24
164	0xfb	-5
165	0x05	5
166	0xe4	-28
167	0x53	83
168	0xb7	-73
169	0x22	34
170	0xf7	-9
171	0xf1	-15
172	0xd6	-42
173	0x04	4
174	0x0b	11
175	0x56	86
176	0xa7	-89
177	0x22	34
178	0x6e	110
179	0xbf	-65
180	0xee	-18
181	0xda	-38
182	0xdb	-37
183	0x78	120
184	0x13	19
185	0x9a	-102
186	0x32	50
187	0xec	-20
188	0xf2	-14
189	0x08	8
190	0x2d	45
191	0x1f	31
192	0xf4	-12
193	0xf1	-15
194	0x4a	74
195	0x0d	13
196	0xdf	-33
197	0x31	49
198	0x3e	62
199	0xcb	-53
200	0xa9	-87
201	0x53	83
202	0xf2	-14
203	0x28	40
204	0x0e	14
205	0x4c	76
206	0x4c	76
207	0x73	115
208	0xf8	-8
209	0x81	-127
210	0x14	20
211	0x0d	13
212	0x3d	61
213	0xef	-17
214	0x21	33
215	0x24	36
216	0x04	4
217	0x0b	11
218	0xf8	-8
219	0xff	-1
220	0x09	9
221	0xec	-20
222	0xee	-18
223	0xe5	-27
224	0x05	5
225	0xe9	-23
226	0xef	-17
227	0x10	16
228	0x11	17
229	0xe3	-29
230	0x0b	11
231	0x38	56
232	0x25	37
233	0xf9	-7
234	0xd2	-46
235	0x1b	27
236	0x14	20
237	0x0c	12
238	0x06	6
239	0xfb	-5
240	0x81	-127
241	0x09	9
242	0x43	67
243	0x0f	15
244	0x1c	28
245	0x49	73
246	0x26	38
247	0xf0	-16
248	0x2b	43
249	0x14	20
250	0x23	35
251	0xd1	-47
252	0x44	68
253	0xef	-17
254	0x1c	28
255	0xe8	-24

depthwise_conv2d_6/depthwise_conv2d1 i1 [1, 3, 3, 48]
0	0x9d	-99
1	0x2b	43
2	0xe6	-26
3	0xe6	-26
4	0xce	-50
5	0xde	-34
6	0x58	88
7	0x00	0
8	0x00	0
9	0xb2	-78
10	0x0b	11
11	0x3b	59
12	0x34	52
13	0x7f	127
14	0xc2	-62
15	0x17	23
16	0xe5	-27
17	0xf1	-15
18	0x09	9
19	0xec	-20
20	0x53	83
21	0x35	53
22	0x25	37
23	0x2a	42
24	0xf4	-12
25	0x02	2
26	0x0e	14
27	0xb9	-71
28	0x6d	109
29	0x67	103
30	0xce	-50
31	0x81	-127
32	0xab	-85
33	0x20	32
34	0xd2	-46
35	0xec	-20
36	0x81	-127
37	0xb4	-76
38	0xb0	-80
39	0xe2	-30
40	0x25	37
41	0xfa	-6
42	0xc7	-57
43	0x55	85
44	0xdf	-33
45	0xc6	-58
46	0x22	34
47	0x52	82
48	0x26	38
49	0xf9	-7
50	0xb9	-71
51	0x81	-127
52	0xc8	-56
53	0xf7	-9
54	0x2d	45
55	0xfb	-5
56	0xbc	-68
57	0xeb	-21
58	0xf7	-9
59	0x7f	127
60	0xe6	-26
61	0x2b	43
62	0xc8	-56
63	0x15	21
64	0x33	51
65	0x7f	127
66	0xe4	-28
67	0xeb	-21
68	0x7f	127
69	0x2e	46
70	0xf8	-8
71	0x76	118
72	0x0a	10
73	0xf5	-11
74	0x1d	29
75	0x88	-120
76	0xeb	-21
77	0xbf	-65
78	0x8c	-116
79	0xc4	-60
80	0x81	-127
81	0xad	-83
82	0x8d	-115
83	0x7f	127
84	0xb6	-74
85	0xde	-34
86	0xd8	-40
87	0x58	88
88	0x45	69
89	0x7f	127
90	0xd4	-44
91	0xbf	-65
92	0x8c	-116
93	0xfa	-6
94	0xe9	-23
95	0x20	32
96	0x7f	127
97	0x3c	60
98	0xc3	-61
99	0xcc	-52
100	0x75	117
101	0xe2	-30
102	0x01	1
103	0xad	-83
104	0xe6	-26
105	0xf7	-9
106	0x1a	26
107	0x14	20
108	0x9d	-99
109	0xcb	-53
110	0x21	33
111	0x0c	12
112	0x05	5
113	0x1f	31
114	0xe5	-27
115	0xf4	-12
116	0x26	38
117	0x25	37
118	0xf8	-8
119	0xe5	-27
120	0x15	21
121	0xf4	-12
122	0x04	4
123	0xd2	-46
124	0xb4	-76
125	0x81	-127
126	0xf0	-16
127	0x03	3
128	0x01	1
129	0xe0	-32
130	0xeb	-21
131	0xc2	-62
132	0xdf	-33
133	0x1f	31
134	0xb3	-77
135	0x3d	61
136	0x14	20
137	0x4f	79
138	0x41	65
139	0xb8	-72
140	0x10	16
141	0xbb	-69
142	0x81	-127
143	0x24	36
144	0xf4	-12
145	0x17	23
146	0xaf	-81
147	0x33	51
148	0x04	4
149	0x01	1
150	0x4b	75
151	0x1e	30
152	0x23	35
153	0xcc	-52
154	0x0c	12
155	0xdb	-37
156	0xfb	-5
157	0xce	-50
158	0xee	-18
159	0xf3	-13
160	0xdd	-35
161	0xc6	-58
162	0x7f	127
163	0x26	38
164	0x10	16
165	0xf6	-10
166	0x7f	127
167	0xc9	-55
168	0x81	-127
169	0x81	-127
170	0x24	36
171	0x88	-120
172	0x7f	127
173	0x7d	125
174	0x98	-104
175	0xd1	-47
176	0x26	38
177	0xfc	-4
178	0xf8	-8
179	0x37	55
180	0x13	19
181	0xaa	-86
182	0xb9	-71
183	0xac	-84
184	0xe4	-28
185	0x05	5
186	0x81	-127
187	0x7f	127
188	0x60	96
189	0x24	36
190	0x29	41
191	0xcf	-49
192	0x81	-127
193	0x81	-127
194	0x10	16
195	0xba	-70
196	0x18	24
197	0x7f	127
198	0xb7	-73
199	0xc6	-58
200	0x7f	127
201	0x7f	127
202	0x81	-127
203	0xff	-1
204	0xdc	-36
205	0x73	115
206	0x7f	127
207	0x81	-127
208	0x10	16
209	0xf5	-11
210	0x71	113
211	0xcf	-49
212	0x08	8
213	0x7f	127
214	0xf5	-11
215	0x7f	127
216	0xea	-22
217	0xae	-82
218	0x7f	127
219	0x81	-127
220	0xb6	-74
221	0xe9	-23
222	0xa1	-95
223	0x40	64
224	0xa7	-89
225	0x0a	10
226	0x7f	127
227	0x82	-126
228	0xbc	-68
229	0x1c	28
230	0xc1	-63
231	0x3d	61
232	0xbf	-65
233	0xea	-22
234	0xcc	-52
235	0xfa	-6
236	0x24	36
237	0x07	7
238	0x28	40
239	0x27	39
240	0x1e	30
241	0x05	5
242	0x81	-127
243	0xdb	-37
244	0x1f	31
245	0xdb	-37
246	0xf6	-10
247	0x81	-127
248	0xd7	-41
249	0x5b	91
250	0x30	48
251	0xf9	-7
252	0x8a	-118
253	0xc5	-59
254	0x3d	61
255	0xf1	-15

conv2d_7/conv2d i1 [56, 1, 1, 48]
0	0xe5	-27
1	0xfc	-4
2	0x3d	61
3	0x2d	45
4	0xba	-70
5	0xff	-1
6	0xc9	-55
7	0xf6	-10
8	0xbc	-68
9	0xd3	-45
10	0x1f	31
11	0xcb	-53
12	0xf4	-12
13	0xf1	-15
14	0xdb	-37
15	0x1c	28
16	0xbb	-69
17	0x81	-127
18	0x2e	46
19	0x6d	109
20	0xf4	-12
21	0xe3	-29
22	0xd2	-46
23	0x2f	47
24	0xa0	-96
25	0x28	40
26	0xe1	-31
27	0x0d	13
28	0x16	22
29	0x00	0
30	0xc9	-55
31	0x69	105
32	0x81	-127
33	0x16	22
34	0x9c	-100
35	0x2d	45
36	0x1b	27
37	0x17	23
38	0xf3	-13
39	0xc7	-57
40	0x73	115
41	0x3a	58
42	0x44	68
43	0xa6	-90
44	0xa6	-90
45	0xf0	-16
46	0x2d	45
47	0x11	17
48	0xff	-1
49	0x7f	127
50	0x02	2
51	0xf4	-12
52	0x05	5
53	0xee	-18
54	0x1f	31
55	0xfe	-2
56	0xf2	-14
57	0xed	-19
58	0x14	20
59	0xf5	-11
60	0x14	20
61	0x0d	13
62	0xe8	-24
63	0x05	5
64	0xed	-19
65	0x0b	11
66	0x0a	10
67	0x00	0
68	0xed	-19
69	0xfe	-2
70	0xf9	-7
71	0xfc	-4
72	0x04	4
73	0x16	22
74	0x1b	27
75	0xd8	-40
76	0x28	40
77	0x0c	12
78	0xee	-18
79	0xf3	-13
80	0x10	16
81	0x15	21
82	0xfe	-2
83	0x02	2
84	0xe1	-31
85	0xea	-22
86	0xed	-19
87	0xdb	-37
88	0x18	24
89	0x22	34
90	0x2d	45
91	0xcb	-53
92	0xf3	-13
93	0xf3	-13
94	0x3c	60
95	0x19	25
96	0x18	24
97	0x62	98
98	0x7f	127
99	0x2f	47
100	0xf5	-11
101	0xf2	-14
102	0x2b	43
103	0xda	-38
104	0x38	56
105	0xe9	-23
106	0xc7	-57
107	0x0f	15
108	0x77	119
109	0xec	-20
110	0x0f	15
111	0x0c	12
112	0x22	34
113	0xdc	-36
114	0xb4	-76
115	0x14	20
116	0x10	16
117	0xdd	-35
118	0xad	-83
119	0x50	80
120	0xf7	-9
121	0xb7	-73
122	0x17	23
123	0x09	9
124	0xe5	-27
125	0xb4	-76
126	0xfb	-5
127	0xb1	-79
128	0x61	97
129	0x3d	61
130	0xec	-20
131	0x49	73
132	0xf6	-10
133	0xfd	-3
134	0x49	73
135	0x6b	107
136	0x1f	31
137	0x43	67
138	0x84	-124
139	0x04	4
140	0xcd	-51
141	0x14	20
142	0x2f	47
143	0xe0	-32
144	0x3e	62
145	0xd3	-45
146	0x15	21
147	0x7f	127
148	0xd0	-48
149	0x17	23
150	0xe6	-26
151	0x6b	107
152	0x06	6
153	0x09	9
154	0xcd	-51
155	0x4a	74
156	0x06	6
157	0x17	23
158	0xec	-20
159	0xe1	-31
160	0xe2	-30
161	0xf2	-14
162	0x07	7
163	0x16	22
164	0xd3	-45
165	0x28	40
166	0x19	25
167	0xdf	-33
168	0xd5	-43
169	0x4a	74
170	0xcd	-51
171	0x30	48
172	0x1e	30
173	0x01	1
174	0x00	0
175	0x28	40
176	0x17	23
177	0xd7	-41
178	0xd9	-39
179	0x24	36
180	0x1d	29
181	0xf3	-13
182	0x3e	62
183	0x3c	60
184	0x06	6
185	0x09	9
186	0xc4	-60
187	0x1a	26
188	0xee	-18
189	0x2e	46
190	0xef	-17
191	0x23	35
192	0xce	-50
193	0x29	41
194	0x03	3
195	0x5b	91
196	0x13	19
197	0xff	-1
198	0x38	56
199	0x7f	127
200	0xd8	-40
201	0x4e	78
202	0xfc	-4
203	0x01	1
204	0x0d	13
205	0xea	-22
206	0xca	-54
207	0xcb	-53
208	0x1a	26
209	0xc8	-56
210	0x16	22
211	0xb0	-80
212	0x1f	31
213	0x18	24
214	0xf1	-15
215	0xe9	-23
216	0xc5	-59
217	0x10	16
218	0xd3	-45
219	0x1c	28
220	0xb5	-75
221	0x19	25
222	0x21	33
223	0x0e	14
224	0xfb	-5
225	0x7e	126
226	0xea	-22
227	0xfe	-2
228	0xad	-83
229	0xcc	-52
230	0xb5	-75
231	0xd9	-39
232	0xa5	-91
233	0xf1	-15
234	0x50	80
235	0x31	49
236	0x20	32
237	0x51	81
238	0xb8	-72
239	0xed	-19
240	0xf9	-7
241	0x23	35
242	0x0f	15
243	0xd0	-48
244	0xd2	-46
245	0xaa	-86
246	0xf9	-7
247	0x37	55
248	0x10	16
249	0x25	37
250	0x29	41
251	0x16	22
252	0x0a	10
253	0x00	0
254	0xde	-34
255	0x26	38

depthwise_conv2d_7/depthwise_conv2d1 i1 [1, 3, 3, 56]
0	0x15	21
1	0xd5	-43
2	0xed	-19
3	0x38	56
4	0xc9	-55
5	0x77	119
6	0x0b	11
7	0x56	86
8	0xf0	-16
9	0xa6	-90
10	0x7d	125
11	0x96	-106
12	0xed	-19
13	0xfc	-4
14	0x15	21
15	0xce	-50
16	0xde	-34
17	0x81	-127
18	0x4c	76
19	0x53	83
20	0xeb	-21
21	0x81	-127
22	0xf2	-14
23	0xdd	-35
24	0x08	8
25	0xb7	-73
26	0x7f	127
27	0xcf	-49
28	0xf5	-11
29	0x4a	74
30	0x7f	127
31	0x18	24
32	0x64	100
33	0x9a	-102
34	0x3d	61
35	0x7f	127
36	0x95	-107
37	0x2e	46
38	0x31	49
39	0x7f	127
40	0xf2	-14
41	0x2a	42
42	0x08	8
43	0x05	5
44	0xdd	-35
45	0x5d	93
46	0x13	19
47	0x40	64
48	0xc8	-56
49	0x4e	78
50	0xde	-34
51	0x5d	93
52	0x3c	60
53	0x54	84
54	0x38	56
55	0x45	69
56	0xdc	-36
57	0x13	19
58	0x11	17
59	0x0f	15
60	0xf4	-12
61	0xcc	-52
62	0xc1	-63
63	0x71	113
64	0xe4	-28
65	0xf3	-13
66	0x55	85
67	0x27	39
68	0xb1	-79
69	0x19	25
70	0xfc	-4
71	0xd8	-40
72	0x8d	-115
73	0xd5	-43
74	0x7f	127
75	0x3e	62
76	0xf3	-13
77	0x9e	-98
78	0x06	6
79	0xcd	-51
80	0xc4	-60
81	0x85	-123
82	0x37	55
83	0x04	4
84	0xad	-83
85	0x28	40
86	0x56	86
87	0x81	-127
88	0x7f	127
89	0x94	-108
90	0x14	20
91	0x12	18
92	0xc8	-56
93	0x32	50
94	0x47	71
95	0x4a	74
96	0x39	57
97	0x5e	94
98	0xb8	-72
99	0x0b	11
100	0x26	38
101	0x1a	26
102	0x2f	47
103	0x7f	127
104	0x8a	-118
105	0x59	89
106	0x03	3
107	0x2a	42
108	0xdc	-36
109	0xfb	-5
110	0x3f	63
111	0xe4	-28
112	0xbf	-65
113	0x7f	127
114	0x22	34
115	0x4c	76
116	0x0b	11
117	0x90	-112
118	0xfb	-5
119	0x24	36
120	0x01	1
121	0xe7	-25
122	0x02	2
123	0x10	16
124	0xe5	-27
125	0x06	6
126	0xcb	-53
127	0xec	-20
128	0x2a	42
129	0x2d	45
130	0x61	97
131	0x13	19
132	0x16	22
133	0xb1	-79
134	0x00	0
135	0x0a	10
136	0x0f	15
137	0xa4	-92
138	0xff	-1
139	0x2b	43
140	0x2e	46
141	0xce	-50
142	0x13	19
143	0xd7	-41
144	0xe9	-23
145	0x81	-127
146	0xc9	-55
147	0xee	-18
148	0xe5	-27
149	0x32	50
150	0x38	56
151	0x0f	15
152	0x7f	127
153	0x14	20
154	0xc2	-62
155	0xf4	-12
156	0xd8	-40
157	0xe3	-29
158	0xeb	-21
159	0x40	64
160	0xf7	-9
161	0x7a	122
162	0xe3	-29
163	0xf2	-14
164	0x81	-127
165	0x97	-105
166	0xe5	-27
167	0xee	-18
168	0x14	20
169	0xd5	-43
170	0xf2	-14
171	0x7f	127
172	0xc3	-61
173	0x7f	127
174	0xdd	-35
175	0x35	53
176	0xcc	-52
177	0xf5	-11
178	0x73	115
179	0xd2	-46
180	0x81	-127
181	0x13	19
182	0xc1	-63
183	0xc3	-61
184	0x17	23
185	0xaa	-86
186	0xdd	-35
187	0xb4	-76
188	0x0a	10
189	0x0e	14
190	0x46	70
191	0x08	8
192	0x7f	127
193	0xf7	-9
194	0x38	56
195	0x0c	12
196	0x8f	-113
197	0x3e	62
198	0x31	49
199	0x05	5
200	0x0d	13
201	0x96	-106
202	0x28	40
203	0x1b	27
204	0x16	22
205	0x23	35
206	0x20	32
207	0x37	55
208	0xda	-38
209	0x60	96
210	0xc9	-55
211	0xd2	-46
212	0xfe	-2
213	0x0f	15
214	0x35	53
215	0xf4	-12
216	0xe3	-29
217	0x5a	90
218	0xe5	-27
219	0xe2	-30
220	0x12	18
221	0x2d	45
222	0x81	-127
223	0x7f	127
224	0x7f	127
225	0xd6	-42
226	0x7f	127
227	0xe8	-24
228	0x81	-127
229	0xbb	-69
230	0x81	-127
231	0x81	-127
232	0x81	-127
233	0x81	-127
234	0x4a	74
235	0x7f	127
236	0x97	-105
237	0x7f	127
238	0x7f	127
239	0x81	-127
240	0x81	-127
241	0xe2	-30
242	0x51	81
243	0x7f	127
244	0x81	-127
245	0xc3	-61
246	0x52	82
247	0xeb	-21
248	0xe1	-31
249	0x29	41
250	0xeb	-21
251	0x31	49
252	0x81	-127
253	0xd2	-46
254	0xaf	-81
255	0xac	-84
